MaskGAE/MaskGAE-LinkPred.pt (torch, 456209 bytes, 12 tensors)

encoder.convs.0.bias f4 [128]
00000000: 3cdc 0d3a db40 0f3a 97cd d539 d56d 9e39
00000010: a961 093a 6331 23ba 92f9 47ba 3b51 213a
00000020: 5c45 ec39 4cb1 4bba 7308 40ba 2ff8 20ba
00000030: a1c3 243a d1c7 1f3a b4aa 443a 6ada 1fba
00000040: abaa 293a ba67 293a 6476 f839 9b81 3fb9
00000050: fea0 83b9 fd95 f039 93f4 173a 013b 5bb9
00000060: da45 7cb9 7481 243a 051a 9a38 80d5 423a
00000070: 86f3 55ba 650d 5238 99dc aab9 9ada 503a
00000080: db56 15b9 04d3 03ba 030e 3cba 2075 12b9
00000090: 2d14 42ba 67c8 bb38 b79c 2cb9 13fe 253a
000000a0: 1ddb c5b9 e494 48ba f4d8 0c3a 37c2 8a39
000000b0: 3991 15ba 891a 443a b2f4 ecb9 a89a 1fba
000000c0: 8f30 253a 2ce5 44ba a6f2 fe37 cb0f 6639
000000d0: 988c 4eba 104d e939 2f9b d639 7d35 013a
000000e0: 2551 1b3a fdc4 9739 e4df a5b8 8175 1f3a
000000f0: dd3b 0f3a d4f3 4c39 2ba7 15ba 845e 0b39
00000100: e976 d739 6bec 0b3a e698 443a 0913 48b9
00000110: 8f3e 22ba b732 173a ddbc 15ba 3abe 22ba
00000120: 2117 493a 4c85 12ba 3661 0e3a f634 153a
00000130: c6e4 0e3a 8c56 37b9 5477 e139 dc4d 0a3a
00000140: e349 253a 9bd9 f5b9 43c5 2339 6497 20b8
00000150: bd28 3e3a 6a09 43ba a918 07ba 3316 4aba
00000160: 032a 43b9 0e1e 19ba c734 123a 44e4 d8b9
00000170: 1e21 1f3a ea5b 153a b612 4a3a 8f17 46ba
00000180: c2db f4b8 d8d4 7238 b070 51ba 89f7 05ba
00000190: c84a 253a 49e8 d5b9 28ff 2b3a d1d4 1fba
000001a0: caff 1a3a 6981 7738 aca9 efb9 1a4d 033a
000001b0: 67a9 293a 609f cdb9 8b2a 09ba 8d68 45ba
000001c0: de24 ea39 0da1 7cb9 a7ea 2239 f9fb a839
000001d0: 52b2 293a df72 42ba 032b c1b9 26e7 1a3a
000001e0: 9973 29ba a95b 26ba b198 10ba 7cda e439
000001f0: b4fd a539 3a98 47ba 0316 4c3a 1421 45ba
0.00054115406 0.00054646813 0.00040779702 0.0003021794 0.0005240688 -0.0006225316 -0.00076284364 0.0006153767
0.00045065104 -0.0007770255 -0.0007325478 -0.0006140498 0.00062852545 0.00060951436 0.00075022434 -0.0006097915
0.000647227 0.0006462295 0.00047390454 -0.00018263461 -0.00025106216 0.00045888117 0.0005796637 -0.00020907448
-0.00024058615 0.00062753935 7.348139e-05 0.00074323267 -0.0008161593 5.0080376e-05 -0.00032589285 0.00079671445
-0.00014242103 -0.0005028697 -0.0007173719 -0.00013967277 -0.0007403519 8.954183e-05 -0.00016461579 0.00063321105
-0.0003773802 -0.0007651581 0.00053729047 0.00026466112 -0.0005705539 0.00074807607 -0.0004519574 -0.0006088414
0.0006301486 -0.0007510956 3.0392152e-05 0.00021940393 -0.00078792265 0.0004449864 0.00040932882 0.000492893
0.0005924872 0.00028947732 -7.909516e-05 0.0006082878 0.00054639374 0.00019545789 -0.0005708809 0.00013291283
0.0004109659 0.0005337658 0.000749959 -0.00019080577 -0.00061891315 0.000576775 -0.0005712042 -0.00062081555
0.0007670988 -0.0005589321 0.00054313557 0.0005691791 0.000545096 -0.00017484481 0.0004300425 0.0005275884
0.00063052605 -0.0004689217 0.00015618377 -3.8287966e-05 0.0007253995 -0.00074400625 -0.0005153516 -0.00077089964
-0.000186123 -0.00058409653 0.00055773224 -0.00041368802 0.00060703035 0.0005697595 0.00077084766 -0.0007556611
-0.0001167576 5.7895522e-05 -0.0007989509 -0.0005110433 0.0006305394 -0.00040799592 0.00065611536 -0.0006097081
0.00059127493 5.900991e-05 -0.00045712048 0.00050087424 0.00064720813 -0.0003921939 -0.00052324747 -0.0007530533
0.00044659426 -0.00024092589 0.00015536939 0.0003223119 0.000647341 -0.000741763 -0.00036843875 0.00059090776
-0.0006464064 -0.0006346056 -0.0005515917 0.00043650332 0.00031660276 -0.0007613931 0.00077852624 -0.00075198826

encoder.convs.0.lin.weight f4 [128, 745]
00000000: baa1 2cbe c79b c7bd 1ae3 15be 5c75 9cbd
00000010: 9ff2 3abe d21f 25be 21fb 93bc 114b 0ebe
00000020: 9e06 0abe 723e d2bd 1425 803b 16e7 0bbe
00000030: cd19 d6bc fde2 14be b3a1 d93d cd2a 12be
00000040: cbe7 f3bd 083e 02be 1f3e f5bd b9d7 c0bd
00000050: 1eca 29bd 34ed f6bd 48cb 0ebe f547 d13c
00000060: e970 34bc ac86 253c 4554 c6bd 8bb2 eabd
00000070: 951c 35bd 905f b13c bb53 a9bc e21d 00be
00000080: 3dac d2bd 9f6c 3abe 95f7 9abc 9556 71bd
00000090: 9655 2bbd b0b5 b5bd d3c7 5cbd 3351 f3bd
000000a0: 4a6c 3f3d f733 25be b76a 3bbe b921 b2bd
000000b0: 6932 5fbd a98e a1bd 9eae 33be a691 5cbd
000000c0: 8655 dcbd 3cf0 bc3b a297 7cbc bb4a 59bc
000000d0: c4cf e1bd d0e1 a1bd d64d 0bbd 8e6c babd
000000e0: 0131 2e3b 2b59 d03c 135c 41be 98f6 113d
000000f0: ac77 dcbd 6f0b edbd c6be a13c 4858 28bd
00000100: c5b9 bcbd 28f8 99bd 4fec c2bd 6193 e0bd
00000110: f7a8 d73b 1377 26be 196e 97bd 6cda 48be
00000120: b800 ae3b 75ec e1bd 390b 453d f99f a6bd
00000130: f0a1 adbd 0024 54bc ff26 43be 488e f9bd
00000140: 8429 fcbd 6568 11bd 447d 38bd e0e7 cebc
00000150: bb86 00be d2f4 d7bd d88f f0bd ea8f 11be
00000160: 4a8c 1cbe 9eba 27be f972 cfbd 75e7 66be
00000170: cc2c 42be 33b6 283d c7fa 06be e55e cabd
00000180: 8c7a 73bd da2c 08be 04be a8bd 2513 f0bd
00000190: eb62 9d3c 7959 94bd 5216 06be 5d40 5dbd
000001a0: bfd8 4dbe 7fc9 a1bd 0e0b 05be 79ae 1ebe
000001b0: b951 f3bd e9a0 3abe 8ffa bdbd 1e74 84bb
000001c0: 2fb1 36be b176 1d3c 1f58 2cbc c8ae 94bd
000001d0: b695 75be 75eb f1bc fb10 47be 710b 933c
000001e0: 70d9 c8bd 57d0 cbbd c602 18bd 1344 d8bd
000001f0: edac 89bd 8ee8 0bbe 50b5 d1bd e76a aabd
00000200: b7bb 9cbd 1e4f 17be 78c6 e2bd b3da 51bd
00000210: ce4a c2bd c871 13bd abd9 a2bd 998b 98bd
00000220: bf1f a4bd 01cd 10be e618 f3bd 39a5 1dbb
00000230: 65c6 3ebd c215 75bd 8bb4 9fbd 0a1f 67be
00000240: 7238 dfbd 585b f6bc b0af 4abe 42be 06be
00000250: 6ae6 31be 75f3 bcbd 3a8c 28be d08c 1b3c
00000260: 365c f8bd 1e9a 7abd 4dc0 e5bd 52d3 1fbe
00000270: fc8b 08be 924d 20bd e3ea 04be 4030 dabd
00000280: 2060 11be a8e3 a2bd 1748 d43c 8443 81bd
00000290: af38 02be 1f15 69bd 81c9 aebd 31e2 24be
000002a0: 6f02 aebd b212 663c e20c babd 3182 c9bd
000002b0: e37e 56be 848c 9abd f598 a9bd efe3 c8bd
000002c0: eb3f 9dbd 7c6b c9bd 5616 d9bc e8c3 49be
000002d0: ea4a 3abe 41c2 76bd 76fe 53be cdc1 f2bd
000002e0: c382 7b3c 2b6f ddbc 2191 d9bd 8f47 51be
000002f0: 687e 50bd 51e8 29be 2660 37bd adc1 0bbe
00000300: a771 09be e88d fcbd 2ee3 e9bb 7c01 75bd
00000310: d44f a1bc 403f 25be c126 91bd 0895 883b
00000320: ced7 26be abc8 fabb fc4c a5bd 5b1a d9bd
00000330: 8c27 98bd 2d19 23bd c700 e0bd 23ca b73c
00000340: 3bf6 a4bd a82e b6bd 47a9 453d 109e 24bd
00000350: 5cb3 26be 2241 e63c e18b 37bd 5870 96bd
00000360: 2c17 23be 9e88 ebbd 5be4 23be 0d00 a5bd
00000370: 75a2 4bbd a25c 05be 1494 99bd 47a1 8bbd
00000380: 2e1e 313c 2b96 cbbd d467 17be d3d8 15be
00000390: 738f 62bd 6146 72bc b3b7 ddbd 555d 4b3d
000003a0: 5767 0dbe cd0c 1ebe b35b f9bd d011 30be
000003b0: b565 3fbe 3e55 c3bd 2b18 ed3c c58a 30bb
000003c0: b04c 94bd 4247 d1bc 9634 20be 0407 0fbe
000003d0: f1c2 c93d cc6f aabd 35dd c7bc cc46 d5bd
000003e0: b1ae 4cbb a224 0abe c226 433d cc82 4abe
000003f0: df14 b1bd 7e6d 04bd ede0 11be f6fa e0bd
-0.16858569 -0.09746509 -0.14637414 -0.07639572 -0.18256615 -0.1612542 -0.018064084 -0.13895823
-0.13479087 -0.10265817 0.00391067 -0.13662371 -0.02613535 -0.14539714 0.10626545 -0.1427414
-0.119094454 -0.12718976 -0.11974739 -0.09416146 -0.04145252 -0.12056962 -0.13944733 0.025547007
-0.011013248 0.010102909 -0.09684042 -0.114598356 -0.04421671 0.021652013 -0.020669809 -0.125114
-0.10286758 -0.18205498 -0.018916884 -0.05892046 -0.041829668 -0.08872545 -0.053901505 -0.11880722
0.046734132 -0.16133104 -0.18302427 -0.08697838 -0.054491434 -0.078885384 -0.1754708 -0.05384984
-0.107585 0.005765943 -0.015417011 -0.013262446 -0.11025956 -0.079043984 -0.034009777 -0.091027364
0.0026579502 0.025433144 -0.1888278 0.03563556 -0.10765013 -0.115744464 0.019744288 -0.041099817
-0.0921512 -0.07518035 -0.095177285 -0.1096561 0.0065814215 -0.1625636 -0.07394046 -0.19614571
0.0053101443 -0.11031429 0.048106406 -0.08135981 -0.08478153 -0.012948036 -0.19057845 -0.12185341
-0.12312606 -0.03549995 -0.045041338 -0.025257051 -0.12551396 -0.10544743 -0.11746186 -0.14215055
-0.15287891 -0.16379783 -0.10129351 -0.22549231 -0.18962401 0.041189384 -0.13181601 -0.09881381
-0.05944304 -0.1329836 -0.082393676 -0.117224015 0.019212207 -0.07243628 -0.13094452 -0.05401646
-0.20102213 -0.078997605 -0.12992498 -0.15496244 -0.11880822 -0.18225445 -0.09276306 -0.0040421626
-0.17841028 0.009610818 -0.010519057 -0.072598994 -0.23982891 -0.02953122 -0.19440071 0.017949792
-0.09807098 -0.09951847 -0.03711202 -0.10559859 -0.06722436 -0.13662931 -0.10239661 -0.08321171
-0.07652991 -0.14776275 -0.11073011 -0.05123396 -0.09486924 -0.035997182 -0.07951673 -0.07448501
-0.080138676 -0.14140703 -0.118699834 -0.002405478 -0.046575923 -0.059835203 -0.07798108 -0.22570434
-0.10899438 -0.030072853 -0.19793582 -0.13158515 -0.17373052 -0.09226123 -0.16459742 0.009494022
-0.12126963 -0.061182134 -0.11218319 -0.15607956 -0.1333465 -0.039136477 -0.12980227 -0.10653734
-0.14196825 -0.07953578 0.025913281 -0.06311706 -0.12716936 -0.05690491 -0.085345276 -0.1610191
-0.08496558 0.014042543 -0.090844885 -0.09839285 -0.20946841 -0.075463325 -0.08281127 -0.098091
-0.07678207 -0.09834954 -0.026499908 -0.19703639 -0.1819264 -0.06024385 -0.20702538 -0.11853371
0.015351 -0.027030548 -0.10623384 -0.20437454 -0.0509018 -0.16592528 -0.04476943 -0.136481
-0.13422261 -0.12331754 -0.0071376776 -0.05981587 -0.019691385 -0.16137409 -0.0708747 0.0041681565
-0.1629326 -0.007653316 -0.08071324 -0.1060073 -0.07429418 -0.03981893 -0.10937648 0.022435253
-0.08054777 -0.08895618 0.04825714 -0.040189803 -0.16279358 0.02810723 -0.044811133 -0.073456466
-0.15926808 -0.11500667 -0.1600508 -0.0805665 -0.049715478 -0.13023618 -0.07498947 -0.068178706
0.010810418 -0.09940752 -0.14785701 -0.14633493 -0.055312585 -0.014787287 -0.108260535 0.049649555
-0.13808952 -0.1543457 -0.12175693 -0.17194295 -0.18691142 -0.09537743 0.028942188 -0.0026938182
-0.072411895 -0.025546674 -0.1564506 -0.1396752 0.09851635 -0.08322105 -0.024397472 -0.10413894
-0.0031232054 -0.13490537 0.047644384 -0.19776458 -0.08646559 -0.032330982 -0.14245959 -0.10985367

encoder.bns.0.weight f4 [128]
00000000: ad6d 863f a3c1 863f 9510 783f a2ac 863f
00000010: c6dd 5b3f 6c30 513f 221c 983f 034c 673f
00000020: 24fe 923f cfbd 3e3f ae16 833f 610a 643f
00000030: 1745 7f3f 37a5 8b3f a387 743f aa29 8b3f
00000040: 7ddc 833f f023 653f 6cc3 913f c6dd 693f
00000050: 552e 883f 0a75 763f 7fd2 8b3f e721 653f
00000060: c32b 6c3f cbd5 803f b643 833f 623d 783f
00000070: 8cda 873f 88bf 763f 69e4 6d3f eb4a 853f
00000080: b29e 8d3f 8f7d 943f d3f1 703f a08a 913f
00000090: 5754 723f 0e66 833f 4ed8 883f ffd7 653f
000000a0: fa9f 903f 88ae 8d3f 2fc7 813f 997c 653f
000000b0: e4ee 8a3f 7a73 973f 72c1 8c3f 0d86 8c3f
000000c0: 8574 643f ac6d 653f 61dd 833f 5614 963f
000000d0: 828c 5f3f 73e7 953f 2970 623f 7bf1 653f
000000e0: cc98 753f 2d1f 8c3f c165 7a3f f4eb 7e3f
000000f0: 6863 883f 2bce 8b3f 6a37 883f 34ee 6f3f
00000100: ad3d 753f a5a4 863f 02be 693f 9861 873f
00000110: 477d 693f f2ae 853f 59d9 783f fd8d 923f
00000120: 1d75 903f a501 9a3f 91f0 963f 4b8b 5a3f
00000130: 9d69 8d3f 2f88 5a3f 9e7f 8a3f bb01 843f
00000140: 7f45 853f d680 823f 3d21 783f d60d 8f3f
00000150: 7506 783f 0aaa 663f e21c 893f b9c8 843f
00000160: 77d6 923f 627d 843f 2e5c 563f 4ae4 623f
00000170: bd2a 803f 5db5 533f d6e4 7f3f 2e57 803f
00000180: 687e 8c3f 4e28 783f cd1d 8a3f 7057 5c3f
00000190: e967 6b3f 053a 7e3f 945c 5f3f be79 843f
000001a0: ab7f 8d3f 9fd8 453f 6bf5 833f afdc 8f3f
000001b0: 4a0f 8e3f 6a5f 823f c9e3 913f 00bd 813f
000001c0: 0f3e 913f 616d 883f a556 7c3f 3209 8c3f
000001d0: 7d6a 893f 083a 733f 22a0 6c3f 6850 8a3f
000001e0: a0f4 7a3f 6125 893f 8fda 833f 3829 7d3f
000001f0: 7ca9 933f 7325 973f 7264 573f 7826 913f
1.050222 1.0527843 0.969003 1.0521433 0.85885274 0.8171451 1.1883585 0.9035036
1.1483808 0.74508375 1.0241296 0.89078337 0.997148 1.0909795 0.95519465 1.087209
1.0301663 0.8950796 1.1387763 0.91354024 1.063914 0.9627234 1.0923613 0.89504856
0.92254275 1.0065244 1.0255039 0.9696866 1.061357 0.96386003 0.9292665 1.0413488
1.1064055 1.1600817 0.94118994 1.137043 0.9465994 1.026552 1.0691011 0.8978271
1.1298821 1.1068888 1.0138911 0.89643246 1.0854154 1.1832116 1.0996535 1.0978409
0.89240295 0.8962047 1.0301934 1.1724956 0.8732377 1.1711258 0.8845239 0.89821595
0.95936275 1.0947014 0.97811514 0.99578786 1.0655336 1.0922292 1.0641911 0.93722844
0.95797235 1.0518996 0.91305554 1.0576658 0.91206783 1.0444014 0.97206646 1.1449581
1.128574 1.2031752 1.1792165 0.85368794 1.1047856 0.8536405 1.0820196 1.0313028
1.0411834 1.0195568 0.9692572 1.1176097 0.9688485 0.9010321 1.0711939 1.0373756
1.14717 1.0350764 0.83734405 0.8862959 1.0013043 0.82698613 0.9995855 1.0026605
1.0976076 0.969365 1.0790344 0.8607092 0.9195543 0.9930728 0.8725064 1.0349653
1.1054586 0.7728366 1.0309271 1.1239222 1.1098416 1.0185368 1.139764 1.0135803
1.1347064 1.065838 0.9856971 1.0940306 1.0735623 0.95010424 0.92431843 1.0805788
0.9802952 1.0714532 1.0301074 0.9889102 1.1536098 1.1808304 0.8413764 1.1339865

encoder.bns.0.bias f4 [128]
00000000: a74f 2e3e 36bd bf3d bbc2 773e 3f04 c63d
00000010: 8abf 753d fd9d 47bd 8124 63be b9a0 42be
00000020: fde2 b1bd 248e 18be 55c9 913d 08a1 713c
00000030: 4ca8 6f3e 7383 f1bd 1800 7ebd 9fa2 60be
00000040: faac 023d adcb febd fec3 413d 494b dabd
00000050: e3a6 953d 29d0 6c3d 5ca0 5dbe 957a 25be
00000060: e50e 593c 5aaa d43d 9b1e fc3c dbed 903d
00000070: b08f 24be 31e5 943c 9a39 263e 4d20 813d
00000080: e7a6 17be 13af a93d e2bd b83c 664a 8c3d
00000090: 3908 443d 5ce5 a93d 4aff b03d e923 b1bb
000000a0: bf36 38bd 72ac 783d ad07 b8bd 288d 403e
000000b0: 1be6 59be c0d9 923c 090a cdbc 8cff d83c
000000c0: b0dd e3bd c859 58bb 2235 d33d 0116 d33d
000000d0: 6a65 c8ba d869 37bd eca0 a4bd 3ba4 64bd
000000e0: b2cf 95bd 2c8e af3d 2dfa b0bc 4424 423b
000000f0: 39ac 993d 09d7 663d ff6b 633e 6ca4 42be
00000100: d1af fbbc ba54 2f3d 116d 0ebe 043d e13d
00000110: d1ff 053d b57d fe3d ca63 9c3d d969 c5bd
00000120: fc9e 063e 2075 2fbe 6452 143e 2a5e 01be
00000130: d375 bfbd a723 2dbe b479 203d 9b85 cc3d
00000140: 4abf 713d beb0 babb 7ae8 0dbe e78f 2f3e
00000150: d339 62bd 56d3 413e a109 713d 2c6f 8f3d
00000160: 7579 59be f7f9 953c 441b 1fbe 6703 89bd
00000170: f6e5 a5bd 3665 93bd 4c58 db3c 9443 5cbd
00000180: 008b f83d 1a6a 133e f7d6 b23d ee59 a13d
00000190: 1d08 1e3e 855c aebc 77d7 9dbd 319d 0abe
000001a0: f59f 7b3d 527c 633e 4077 9abd c0a5 acbd
000001b0: 3cd9 843d e32e dbbc 7656 d5bd f603 acbc
000001c0: 866a 323d 2a7c 863d 2499 8ebd 0c12 0c3e
000001d0: 364c 33bd 27f6 87bd 748d f93d 6010 cb3d
000001e0: d08c 993d fa64 5fbe f986 443d c43b 163d
000001f0: 2e8b 63be c9e7 4cbe 29b9 36be 53d8 aabd
0.17022572 0.09362261 0.24195378 0.09668779 0.05999712 -0.048734654 -0.22181894 -0.19006623
-0.08685873 -0.14897972 0.07118479 0.0147478655 0.23404044 -0.1179265 -0.06201181 -0.21937035
0.031903245 -0.12441192 0.047306053 -0.10658891 0.07307222 0.057815704 -0.21643203 -0.16160043
0.01324818 0.103840545 0.030776313 0.07076617 -0.16070437 0.018175693 0.16232911 0.06304989
-0.14809762 0.08285346 0.02255148 0.06850128 0.047859404 0.082957 0.086424425 -0.005405892
-0.044974085 0.06071133 -0.08985839 0.18803847 -0.21279185 0.017926097 -0.0250292 0.026489042
-0.11126268 -0.0033012498 0.10312869 0.10306931 -0.0015289013 -0.044778675 -0.08038506 -0.055820685
-0.07315005 0.08572039 -0.021603668 0.0029623667 0.07503552 0.056357417 0.22209166 -0.19008034
-0.030723484 0.04280541 -0.13908793 0.10997966 0.03271467 0.124263205 0.07636221 -0.096393295
0.13146585 -0.17134523 0.14484555 -0.12633577 -0.09348645 -0.16908132 0.039178565 0.09986421
0.059020318 -0.005697339 -0.13858214 0.17144738 -0.055230927 0.18928275 0.058847073 0.07003626
-0.21237738 0.01830767 -0.15537745 -0.06690102 -0.08100502 -0.07197039 0.026775502 -0.053775385
0.12135887 0.14395943 0.087324075 0.07878481 0.15432782 -0.021284351 -0.07707112 -0.13536526
0.061431844 0.22215393 -0.075422764 -0.08430052 0.06486747 -0.026755756 -0.10416882 -0.020997982
0.04355862 0.06566651 -0.06962803 0.1367876 -0.043773852 -0.06638747 0.12185183 0.09915233
0.07497561 -0.21815863 0.047980282 0.03667809 -0.22221062 -0.20010294 -0.1784407 -0.08342042

encoder.bns.0.running_mean f4 [128]
00000000: 0409 33c1 eb8d a3c0 2e75 29c1 6f5b 82c0
00000010: 2058 24c1 02c0 3fc1 f242 21bd 28a4 2fc1
00000020: 1013 9d3f ef74 42c1 df73 b640 3b24 5b41
00000030: cdff 31c1 574b 09c0 a5b8 de40 1305 7dc0
00000040: 942b 05c1 3e89 3dc1 36d1 753f a255 bdc0
00000050: 3e2d 9d40 03d1 2241 522d b2bf 4d1d 16c1
00000060: 48b2 f240 b9b9 4441 c13a f140 1569 ab40
00000070: 0e4e 753f 5385 3741 8c11 3ac1 1a08 8a40
00000080: 8074 b5bd 7fff 0f3f 256c 1a41 6f74 2d40
00000090: ba46 2ec1 f508 43c0 f2d9 3f40 0241 a3c0
000000a0: 0529 c040 791d 8a40 dc56 34c0 fd59 30c1
000000b0: 376e bcc0 505b ab3e 74a6 5040 7980 69c0
000000c0: d335 18c1 43be d340 0216 0041 45fb 553f
000000d0: 9c9d 43c1 1bb3 02bf cab5 19c1 84aa 66c1
000000e0: 7a2f 3041 f3b6 c73f 5998 0941 47cd df40
000000f0: 3018 0dc1 8a17 95c0 7a47 6c40 0226 42c1
00000100: 9b2b 8bc0 ca95 0741 64ff 3ac1 2918 11c1
00000110: 3c98 0f41 1352 c640 7fc4 55c1 a5fa af3f
00000120: eedb 983f 8131 89c0 cb34 f33e a248 2bc1
00000130: 1a25 d440 3597 18c1 4f73 2640 ec8f 9840
00000140: 17dc 80c0 ab43 4040 3d3b a840 4623 df40
00000150: 5cb2 1941 d309 3bc1 7753 e6c0 c9af 0141
00000160: 5751 ef3e 6b9b f03f c5c0 2dc1 27cd 10c1
00000170: f0dc 4141 979c 21c1 1f04 e6c0 fdba c540
00000180: 4288 afc0 92c3 32c1 bae0 1c40 f587 2ac1
00000190: bfb7 45c1 b338 e1c0 5eae edc0 f0c9 0641
000001a0: c618 4240 8b4e 46c1 80f8 3641 60ae bdc0
000001b0: a4d1 fc3f d671 fe3f 7809 083f ee0b ee40
000001c0: db55 0ebf 83a5 3ac1 5f30 1b41 1d80 30c1
000001d0: d8e0 ab40 9f9c 0641 c81b 35c1 6c00 d940
000001e0: dffd 9b40 5f2d 0bbf d9a6 0b41 ba6d 3a40
000001f0: fd88 943d 181c 6dbd 576c 22c1 3495 40c0
-11.189701 -5.111074 -10.591108 -4.0736613 -10.271515 -11.984377 -0.039370485 -10.977577
1.2271442 -12.153548 5.7016444 13.696345 -11.124951 -2.1452234 6.9600396 -3.9534347
-8.323139 -11.846006 0.96022356 -5.916703 4.9117727 10.176028 -1.3920081 -9.3821535
7.584263 12.295342 7.538422 5.3565774 0.95822227 11.47005 -11.629284 4.313489
-0.08860111 0.5624923 9.651402 2.7102315 -10.892267 -3.0474217 2.9976773 -5.1016855
6.0050073 4.3160977 -2.8178015 -11.02197 -5.888454 0.33468103 3.2601595 -3.6484663
-9.513141 6.6169753 8.005373 0.8358653 -12.225979 -0.51054543 -9.606882 -14.41663
11.011591 1.5602707 8.599694 6.9938083 -8.818405 -4.6591234 3.6918626 -12.134279
-4.349073 8.47407 -11.687351 -9.068398 8.974667 6.197519 -13.360473 1.3748366
1.1942117 -4.287293 0.47501215 -10.705233 6.629529 -9.536916 2.6007879 4.7675686
-4.0268664 3.0041301 5.257231 6.973056 9.606045 -11.6898985 -7.1976886 8.105416
0.46741745 1.879743 -10.859563 -9.050086 12.11644 -10.10073 -7.188003 6.1790757
-5.485383 -11.172747 2.4512162 -10.658193 -12.35736 -7.0381713 -7.427535 8.424301
3.032762 -12.394176 11.435669 -5.927536 1.9751477 1.987849 0.5313945 7.4389563
-0.55599755 -11.665408 9.699309 -11.031278 5.3711967 8.413238 -11.319283 6.7813015
4.87474 -0.54366106 8.728234 2.9129472 0.07252691 -0.05788812 -10.15145 -3.0091066

encoder.bns.0.running_var f4 [128]
00000000: 65dd 9a42 0178 be41 7ad7 1a42 ff32 a041
00000010: 150b 1342 ea75 5b42 ce30 f03f e411 2e42
00000020: b7aa 8a40 01dc 5b42 795c 2641 584e 8d42
00000030: 931e 2942 579a 8840 722b 6841 f486 0141
00000040: 861f 3442 b239 4b42 017d 5a40 9711 8841
00000050: 0a47 eb40 4d89 1642 48b0 1d40 70fa eb41
00000060: 56d6 b741 6303 7342 4105 7041 1204 4741
00000070: 44af 8640 0cee 1b42 bfb8 4042 312a fb40
00000080: 549b 4740 b808 ca3f 0d1c dd41 582a 6140
00000090: 716a 3842 7b45 9341 2d25 b140 c5dc 0841
000000a0: bda2 1e41 d056 9f40 b15d ef40 7ff7 2e42
000000b0: 3896 6a41 ad85 523f d3fb 7140 5de9 7f41
000000c0: 59a5 1842 648c 8b41 11aa a441 6f5b b33f
000000d0: cf29 5b42 b5f5 0c40 9410 0442 6590 9642
000000e0: c64b 1e42 7827 1340 4ba9 a341 f38d 5641
000000f0: 2269 7042 2f16 9641 eb8a 5e41 962b 5a42
00000100: cc73 6041 664c 9a41 6bb3 4642 76a0 7142
00000110: c00c 0d42 38c5 5441 bf59 7542 23d1 bd3f
00000120: ad4e 3140 1644 0f41 8b00 f13f c597 4542
00000130: 4000 1742 644a 0142 fb4d 2f40 ed6e 5f41
00000140: c7a6 7d41 c0a2 7940 f461 d641 8862 0542
00000150: 4d56 e141 8976 3642 1aa0 1742 626e 9e41
00000160: 7f33 1640 6190 4440 e0de 2a42 ee39 d541
00000170: 2768 3442 7741 2042 c460 a241 0786 1c41
00000180: 729f c841 7442 3442 b203 9e40 8a9f 2c42
00000190: 6f17 5b42 bb6b 0d42 36b3 b741 8056 9441
000001a0: a1ba 7c40 f037 6342 2383 2042 b643 8741
000001b0: a699 4340 b47d d440 586e 953f 23f6 6041
000001c0: 0d6b 4d40 5796 a842 19ac e441 370f a542
000001d0: 2947 eb40 f1bd 5c42 b94b 3042 5a3b 5641
000001e0: ff5a 5741 2fe7 d33f 5f9c bd41 b053 fe40
000001f0: edb5 8c3f 5a76 0440 9465 1a42 a1e0 b840
77.43241 23.808596 38.710426 20.0249 36.760822 54.86515 1.8764894 43.51747
4.333339 54.964848 10.397576 70.653015 42.279858 4.2688403 14.510607 8.095448
45.030785 50.806343 3.4138796 17.008589 7.3524218 37.634083 2.4638844 29.497284
22.979656 60.753307 15.001283 12.438494 4.2088947 38.982468 48.180416 7.8489003
3.1188555 1.5783911 27.638697 3.5182095 46.103947 18.408926 5.535788 8.553899
9.914731 4.979347 7.480187 43.741695 14.6616745 0.82235223 3.7809951 15.994473
38.161472 17.44355 20.58304 1.4012278 54.79083 2.2024968 33.01619 75.28202
39.573997 2.299284 20.457663 13.409656 60.10267 18.760832 13.9089155 54.542564
14.028271 19.287304 49.675213 60.4067 35.26245 13.298149 61.337643 1.4829448
2.770427 8.954123 1.8828291 49.398212 37.750244 32.322647 2.7391346 13.9645815
15.853217 3.9005585 26.797829 33.346222 28.16714 45.615757 37.90635 19.803898
2.346893 3.0713122 42.71765 26.653286 45.10171 40.06393 20.297249 9.7827215
25.077854 45.064896 4.937951 43.1558 54.772884 35.355206 22.962505 18.542236
3.948891 56.804626 40.128063 16.908062 3.056253 6.6403446 1.1674299 14.060092
3.2096589 84.29363 28.584032 82.52972 7.3524365 55.18549 44.073948 13.38949
13.459716 1.6554927 23.701353 7.9477158 1.0993019 2.0697236 38.599197 5.7774205

edge_decoder.mlps.0.weight f4 [64, 128]
00000000: dbc4 edbd 2043 a7bc d017 ebbb 97cf bf3c
00000010: 293c a93d 7dd6 2b3c 1e68 ca3c f72c a43b
00000020: df37 053d 1b92 383c 743a b6bc cfc5 bf3d
00000030: 175d f5bd 5a24 213c 3512 80bd bd12 7d3d
00000040: 1475 c6bc d0f6 4abd 7bee 003e 8062 7ebd
00000050: 609e f2bd 8db1 8ebd fcb9 23bc b26c 033e
00000060: 7ed3 3a3d 66e2 2a3d af57 92bc 01da 693b
00000070: 333b 5c3d 6c2d 333c 0e61 ac3c 8b49 0abd
00000080: deb8 4b3d eadd 273e 9d1d 91bc b438 123c
00000090: 0413 c4bd 5eb3 4abc 4777 c7bd 737e 223c
000000a0: 85f8 d5bb 6c6b 8ebd 8e61 09bd 36b0 2ebd
000000b0: 24ba 143d c595 423e d9c2 3abd 4d41 23be
000000c0: fde3 c4bc 981d 56bd a5c1 63bd 011e 053d
000000d0: d976 a2bc 1b62 463e 3377 b13d 8cce fabd
000000e0: 7751 16bd d764 14bc 0f73 40bd d4d0 1d3d
000000f0: ad5a 87bd dcf5 ed3d 41a9 a8bd 9564 1c3d
00000100: dd69 b1bc 22f8 f4bc 0ada 183d 8dd8 fabd
00000110: f4db e03d 3650 613d 735d 82bc 8490 0e3e
00000120: 1a60 f93d cd65 573d c8cf 8a3c 0ba5 3dbd
00000130: d5f8 873d d6ef a93c ca02 463d 635b 953d
00000140: f9f5 c6bd 4abc a1bd 645a 033c ec55 66bd
00000150: a56b 70bc c3c6 d9bc 47ee dc3d d02c 3d3d
00000160: 58f5 0a3e b4b3 30bd 086f 223d c1d2 703d
00000170: d566 933d f4fe 3a3d 633e d0bc 87ab 5abd
00000180: 13f4 8dbb 3d39 92bd e771 d3bd ad4a 6e3c
00000190: a5a3 e4bc 1feb 703d 60b1 163d e1b3 3d3d
000001a0: c567 b43a d276 90bd 1cb3 02be 2ad3 ac3d
000001b0: 1f8a f7bd 6902 653d 9e41 12bc c4db 44bd
000001c0: 781c 933d 9c6b 9c3c c2b1 e03c f65b 4fbd
000001d0: b198 a4bc 887a 19bd d74a f93a 362e b0bd
000001e0: 15d5 843c 834a 543c a254 dbbc 222d c2bc
000001f0: cd6e 863d 7d8b 3a3e c62a 6a3d f67c 44bc
00000200: 310a 92bd 9ab1 19bd 7906 c4bc 89e1 0ebc
00000210: 89ba e93d 9dbd 49bd 9f52 f03d 614d 2c3d
00000220: 38e7 cc3d 7f52 8fbc 02fd d6bc 32a2 83bc
00000230: 7f16 a5bd 9cb9 a43d 93cc 05bd 975d 393e
00000240: c6ab c6bc 1023 bfbc 54d5 c43d c629 e0bc
00000250: ac03 0bbd 3dc1 89bc fbed 353e 0001 043e
00000260: edfd 89bd 988d 68bc b443 06be 1f91 a73d
00000270: 3da3 cd3d 0af0 66bc 4285 3bbd d94e e0bd
00000280: 5f70 083e 7c9f f43d 584a 65bd fe7c 99bd
00000290: 5543 323d 000b 0a3d 3199 543d 50b3 ebbc
000002a0: 3b56 c4bd 3364 a9bd faea 51bd 0923 6fbd
000002b0: 0108 323e ad73 4e3e 9837 06be 92f1 03be
000002c0: a5a3 1ebd 1b38 1b3d c1f1 05be 0024 aa3d
000002d0: ada8 8cbd ab12 053e 94a1 0fbd d68f 613d
000002e0: 8af5 6ebc ee56 b53c 2c7b 3cbd 9969 07be
000002f0: 62bb c6bd d30d 0d3e 2928 d73c 21a9 8b3d
00000300: 01db bd3c 8451 56bd 391c a23b ef1c 27bd
00000310: bdef 913d 613c 03bd e3f5 bc3c 2a2f 0e3e
00000320: 6cda 063e f64d 453e 593a ce3d 2a32 9e3d
00000330: 000f be3d 4570 a93d 0076 913c 9e7e 44bd
00000340: 0e0d 7c3c dbbb dfbc 4f9b d53b 7956 223d
00000350: 086a 3ebd 30a9 cabb b101 433d 20a5 09bd
00000360: d6a1 943d b14d cd3b 0b89 003d d4f5 36bc
00000370: af63 0ebe 993e a83c 43b0 333d 60c8 c6bc
00000380: 4eb2 c6bd bdf5 d03c 7a34 a3bd b8a0 c13b
00000390: c0c7 9e3c c09f 91bd 9da6 a33d 66a8 4ebd
000003a0: 5a43 14bd 1930 4f3d 2520 14be 6e94 f73d
000003b0: 72b0 073d 9186 06bd 1053 423e 3ab9 11bd
000003c0: 2359 b73c 08e2 edbd 9a51 17be 1ed6 96bd
000003d0: db0f ebbd 6c4b 1fbd c684 81bd 126d b2bc
000003e0: 23fd 00bd 2a35 f13d aa30 dcbd dc3f 38bd
000003f0: f7a6 183e fee6 883d 0985 a13b 075c 253e
-0.11609813 -0.02041775 -0.0071744695 0.023414416 0.08263428 0.01048815 0.02470785 0.005010243
0.032523986 0.011265303 -0.02224467 0.09363901 -0.11980646 0.009835327 -0.06253473 0.06178545
-0.02422575 -0.049551785 0.12590973 -0.062105656 -0.11846614 -0.06967459 -0.009993073 0.12834433
0.04561185 0.041719817 -0.017864076 0.003568292 0.053767394 0.010936122 0.021042373 -0.033761542
0.04973685 0.16393247 -0.017714316 0.008924652 -0.095739394 -0.012371866 -0.09739547 0.009917843
-0.00652987 -0.06954083 -0.0335403 -0.042648517 0.03631033 0.19002445 -0.045595977 -0.15942879
-0.024034495 -0.052274317 -0.055604596 0.032499317 -0.019832062 0.19373362 0.086653136 -0.12246427
-0.036698785 -0.009057245 -0.04698473 0.038529232 -0.06609092 0.116191596 -0.082354076 0.03818186
-0.021656925 -0.029903475 0.037317313 -0.12248335 0.10979453 0.055008136 -0.0159137 0.13922316
0.12176533 0.05258732 0.016944781 -0.046299975 0.06639258 0.020744245 0.048342504 0.07292821
-0.09714884 -0.078972414 0.008017156 -0.056234285 -0.014674102 -0.026584035 0.10787635 0.046185315
0.13570154 -0.04314013 0.03965667 0.05879474 0.07197348 0.0456533 -0.025420373 -0.053386237
-0.0043320744 -0.071398236 -0.103244595 0.014544171 -0.027910063 0.05881798 0.03679025 0.046314124
0.0013763836 -0.07053913 -0.12763637 0.08438714 -0.120868914 0.0559105 -0.008926777 -0.048061147
0.07183164 0.01909428 0.027428512 -0.05062481 -0.02009234 -0.03747037 0.0019019496 -0.08602564
0.016214887 0.012957218 -0.026773755 -0.023703162 0.06564102 0.18217273 0.0571697 -0.011992684
-0.0713085 -0.03752289 -0.023928868 -0.008720764 0.11412532 -0.049253095 0.11734509 0.04206598
0.10005039 -0.017495392 -0.02624369 -0.016068552 -0.080609314 0.08043215 -0.0326658 0.18102108
-0.02425183 -0.023332149 0.096110016 -0.02736367 -0.03393905 -0.016815776 0.17766564 0.12891006
-0.067378856 -0.014193915 -0.13111764 0.081819765 0.10040901 -0.014095316 -0.04578138 -0.10952539
0.13324116 0.11944482 -0.055979103 -0.074945435 0.043521244 0.033701897 0.051903907 -0.028772026
-0.0958676 -0.082710646 -0.05124948 -0.05838302 0.17385866 0.20161314 -0.13107145 -0.1288512
-0.038730282 0.037895303 -0.13080503 0.08307648 -0.0686811 0.12995403 -0.035066202 0.055068813
-0.014584908 0.022136178 -0.046015903 -0.13223876 -0.09703709 0.13774805 0.026264267 0.06819368
0.023175718 -0.052323833 0.004947212 -0.040799078 0.071258046 -0.032040004 0.023066467 0.13885179
0.13169259 0.19268021 0.10069723 0.07724412 0.09280205 0.08273367 0.017756462 -0.047972314
0.015383972 -0.027311256 0.0065187584 0.039633248 -0.046487838 -0.0061847195 0.047609035 -0.03360474
0.0725743 0.006265365 0.031380694 -0.011167008 -0.13905214 0.020537661 0.04386927 -0.024265468
-0.09701978 0.025507802 -0.079689935 0.0059090517 0.019382358 -0.07110548 0.07990763 -0.050453566
-0.036197044 0.05058298 -0.14465387 0.120888576 0.033127256 -0.032843176 0.18976998 -0.035577036
0.02238137 -0.11615378 -0.14777222 -0.07365058 -0.114776336 -0.038890287 -0.06324153 -0.021780524
-0.03149141 0.11777718 -0.107514694 -0.044982776 0.14907442 0.06684683 0.004929189 0.16148387

edge_decoder.mlps.0.bias f4 [64]
00000000: e6f9 c6bd eb8b 81be 1d68 393e a826 f4bd
00000010: a3fc 823e 60bb a1bd e88b 603e d941 ad3e
00000020: 6a52 9abd 4fd9 a4bd da74 68be 0618 17be
00000030: a9f1 a13e 762a aabd 9fe8 33be b143 e5bc
00000040: 64a9 8a3e 62e7 9e3e c9fb 7dbe 8410 183d
00000050: 3eb4 7e3e 6347 7ebe b6e9 5dbd 3808 7dbd
00000060: 6e06 ab3e 8e00 1d3d 20df 36be 5a92 283e
00000070: 684d 883e 3175 61be 8671 fabd 2e2d 3bbe
00000080: 4eab 8c3e b227 8cbe 8a18 9c3e 0eb6 b53e
00000090: 82db 3dbe e300 873e 3238 42be cf5f 2cbe
000000a0: d61c 59be 57ce 0a3d 253e c7bd 1ff9 923e
000000b0: f6a0 8c3e e3c5 843e f650 653e ed16 3b3d
000000c0: 6fa7 3d3e 15d2 5cbe e190 9c3e c042 1abe
000000d0: 6c35 7d3e ee2f 483e 98eb 05bd 0cb5 b9bd
000000e0: d87a 11be 771c 59be 4b36 f4bd 1424 16be
000000f0: a102 3fbe a0bb 05be 03f8 723e 61b1 15be
-0.09715633 -0.2530206 0.18106122 -0.119214356 0.25583372 -0.07897067 0.2192837 0.338393
-0.075352505 -0.08049261 -0.22700825 -0.14755258 0.31629685 -0.0830888 -0.17569207 -0.02798638
0.2708236 0.31035906 -0.2480308 0.037125126 0.24873444 -0.2483192 -0.054177962 -0.061775416
0.33403343 0.038330607 -0.17858553 0.16462079 0.26621556 -0.22017361 -0.12228684 -0.18278953
0.27474445 -0.27374035 0.30487472 0.3549046 -0.18540767 0.26367864 -0.1896675 -0.16833423
-0.21202406 0.033888187 -0.0972865 0.2870569 0.27466553 0.25932226 0.22394165 0.04567616
0.18520902 -0.21564515 0.30579284 -0.15064526 0.2472741 0.19549534 -0.032695383 -0.09067735
-0.14207017 -0.21202265 -0.11924418 -0.146622 -0.18653347 -0.13059855 0.23727421 -0.14618446

edge_decoder.mlps.1.weight f4 [1, 64]
00000000: 926c 8fbd f517 3a3e 27c0 52be 8df0 e23b
00000010: c680 69be 0a7f cebc 8d5f 43be a59d 36be
00000020: 767c f03b 0c63 8d3d a675 0d3d e057 a53d
00000030: c62f 3cbe 4752 5bbb 7c6a 2c3d 1969 0fbd
00000040: 1b3b 3dbe 7f2e edbd 784e 1e3d cf4b 07bd
00000050: d292 80be 7e47 973d 4cd9 71bd 238c a5bc
00000060: ae05 8cbd 69d0 74bd 1015 7b3d 35ff 0dbe
00000070: a8b0 53be c3a2 023d 549c d83c 69ce b43d
00000080: ff9b 7dbe 53d3 2c3e 182e 33be 42f5 85be
00000090: d3f3 5e3d 57c8 3ebe 689e b43b 61fa 2f3d
000000a0: d0c5 183e 4ef7 8dbd 1b3e 053c e902 41be
000000b0: bf67 25be aee6 5fbe 3ef0 01be e6aa 85bd
000000c0: b352 c6bd 69a8 0d3d bb51 aebe 87c7 d13d
000000d0: 1f3c 22be 0ccf 45be b76b 55bc e79d 06bd
000000e0: 51d0 a63c de30 213d 0bc7 643d 13e0 ebbb
000000f0: fd60 3dbc 6c00 a23c 29ef 5abe f218 e53c
-0.0700313 0.18173201 -0.20581113 0.0069256485 -0.2280303 -0.025207061 -0.19079418 -0.17833574
0.0073390556 0.06903657 0.034536026 0.080734015 -0.18377599 -0.003346579 0.04209374 -0.03501234
-0.18479578 -0.11581134 0.038649052 -0.03303128 -0.25112015 0.07386683 -0.05904512 -0.020208424
-0.06837021 -0.059769068 0.061299384 -0.13866885 -0.20672858 0.031893503 0.02644173 0.08828432
-0.24766539 0.16877489 -0.17498052 -0.2616368 0.054431748 -0.18631111 0.0055120476 0.04296339
0.1491921 -0.06931935 0.008132483 -0.18848766 -0.16152857 -0.21865341 -0.12689301 -0.06526737
-0.096837424 0.034584437 -0.3404673 0.10243135 -0.15843247 -0.19317263 -0.0130261695 -0.03286543
0.020363005 0.039353244 0.055853885 -0.0071983426 -0.011558768 0.019775592 -0.21380295 0.027965996

degree_decoder.mlps.0.weight f4 [64, 128]
00000000: 47e2 c63d d25f f83d f3af 083d 0503 d13d
00000010: 6f07 933d 52a9 ffbc aa38 03be a87e 603c
00000020: 9601 26be 1df2 2bbd 9e84 1a3d 0f04 293d
00000030: a079 753d 3cab 2bbd 4ee2 b13d 8ac6 563d
00000040: cacb 223e fe86 9e3d 292b 1e3e feba 0f3d
00000050: bbc1 f53d d659 de3d b771 dd3d b6a2 b4bc
00000060: d64f d03d adf9 45bd 8e3f 1d3e fb43 dd3c
00000070: 3d69 82bd 1661 d33d a050 88bc a015 e53d
00000080: a002 13be 873c 583e a7e8 033e 4c61 493e
00000090: 7446 6d3d 1442 1a3d 3cd9 073e 4ca3 bfbc
000000a0: 29d0 123e 83ea ec3d c203 f73a 66c5 7c3d
000000b0: 6ffb 4f3d 8da1 253e 9485 bd3d 6cfb d23d
000000c0: a45d 1bbd b1f0 413d e441 2f3e 2a42 bb3d
000000d0: b9d2 943d 307e 60be c222 aa3d 2492 493d
000000e0: 8f09 dc3d 8ffe 1d3e 4e54 4d3e a09f cb3d
000000f0: b9d3 3d3d 2cff 383e afa9 3cbe 7001 ca3d
00000100: 7b82 833d 9e8d ae3d 7617 a23d cc58 c23d
00000110: 7ede e7bd f25b f03d becd fd3c d1e9 583e
00000120: 4fd4 183e 22b3 8f3d f957 213d eeff 203e
00000130: ca25 00be 09d5 873d fb48 e13d f20d f5bd
00000140: 5729 d43d f903 853e 8c97 f4bc 75d1 e4bd
00000150: 5f02 373e 56e8 b93d 10a0 0c3e 62a8 f43d
00000160: de5e 23be 45b9 173e 5c02 33bd 01bb b53d
00000170: 285d 9a3c 6342 493d c69d b13d 5c1e bb3d
00000180: 8900 4e3e 6b10 103d 149a b63d b222 923d
00000190: f192 073e 2fd2 4b3e d52a aebd fb08 7d3d
000001a0: 7cd1 323e 50de f43d 7338 633c a5a9 f73d
000001b0: e62c 403e 20c4 45be 267d ee3d b967 173e
000001c0: cb45 4c3e 8c12 843e f734 c13d 5f56 433e
000001d0: 7567 4f3e c455 babb bc94 63bc 7f39 513d
000001e0: 31ea e8bd a856 afbd 8721 1f3d c551 17be
000001f0: ba54 1b3e 5830 46be 4468 4c3d 9a39 833e
00000200: fe69 0abc 044a c4bd 7238 8c3d 7778 fbbd
00000210: bc9e 9e3c 2beb b3bb 313d 12bc 545d 0e3e
00000220: 94bd 8e3c fc96 f93b 0595 a7bc 64a7 e3bd
00000230: a754 643c 90d5 293d 72e9 3c3d a04d e53c
00000240: 36e0 05bd d4cd 9e3d 944b 89bd 19be 8ebd
00000250: 3ea8 22be a2be afbd 76f9 9a3d 922c 04be
00000260: a343 6e3c 0d45 cdbb 4f20 8abd c9fa 36bd
00000270: 4f01 92bc 8fbd 12bd 77dc 653d 9243 20be
00000280: 1295 a8bd ef92 1cbd d670 a2bb 6b6e 14bd
00000290: 6712 afba 3fba 61bd 4c4e 00be 31c3 81bc
000002a0: 94e9 69bd f647 67ba 04a7 06be 678c 4e3c
000002b0: 56cf 9cbb 8c77 d2bd 03a6 c5bd 5dcd d4bc
000002c0: 6368 fc3c bb5d 8f3d d12d 473c df8b dbbd
000002d0: 25c1 003e 03fa 51bd 0956 203d 622f a03d
000002e0: 8047 6abd 41c6 a2bd 42eb a2bd 2331 1bbd
000002f0: 475b 15be 63eb 84bd 637c 323e 65b3 333c
00000300: 8363 bfbc 606b d8bd 3315 a0bc 032d e7bc
00000310: 7697 1abc f243 3bbd 1d1c ad3d 0ec2 a8bc
00000320: a413 9fbd e257 40bc d383 c5bb fda7 eb3c
00000330: 7e0c b53d 1d5a bcbc b9b4 e8bd 81bb efbc
00000340: bb28 1abe 8102 143d 2faf 9abd 1aa7 223e
00000350: a7e0 63bd c14a 123e 9b0b bbbd ee4d c5bd
00000360: 254e 933c 692e 0e3d d70d f53c c220 083e
00000370: 5a22 15be 5e89 e73d c2d7 a1bd 4122 1fbd
00000380: 0535 0abe aafa dd3d d86d 8fbd a743 a83b
00000390: 73c1 f63d c716 19bc 7825 643d 1ef2 abbd
000003a0: 4e36 dabc 29d3 063e 4885 bdbd 129a 99bd
000003b0: eb13 0ebe c007 b4bd 4525 8ebb 5c96 90bd
000003c0: 24bd e7bd 6b8c 7fbd d02d b43c c4ad a4bd
000003d0: 6801 cc3c b929 1a3e abaf ee3d 0fab abbd
000003e0: c893 6b3c f5fd 5b3c 5654 44bd dc18 9fbd
000003f0: 341f 88bd 3926 2c3e 973e 57bd 3b05 983c
0.09711128 0.12127651 0.033370923 0.10205654 0.07179152 -0.031208668 -0.12814584 0.013702072
-0.16211542 -0.041978944 0.03772413 0.041263636 0.059930444 -0.04191135 0.08685742 0.052435435
0.15898052 0.077405915 0.15446152 0.03509044 0.11999842 0.108569786 0.10812705 -0.022050243
0.101714775 -0.048333813 0.15356275 0.027009955 -0.06367729 0.10321252 -0.016640007 0.11185765
-0.1435647 0.2111684 0.12881719 0.19666022 0.057928517 0.037660673 0.13266462 -0.023393296
0.1433722 0.11568167 0.0018845724 0.06171169 0.050776895 0.16174908 0.09253994 0.10301861
-0.0379311 0.04734868 0.17114979 0.09143479 0.07266755 -0.21923137 0.08307411 0.049211636
0.10744011 0.15429138 0.20051691 0.099425554 0.046344493 0.1806609 -0.18424104 0.098635554
0.064213715 0.08523105 0.07914631 0.09489593 -0.11321734 0.11736287 0.030981895 0.21182944
0.1492474 0.07016589 0.039390538 0.1572263 -0.12514415 0.0663243 0.11000248 -0.119655505
0.103594474 0.25979593 -0.02985742 -0.11172763 0.17871998 0.09077518 0.13732934 0.11946179
-0.15954158 0.14816768 -0.043703422 0.08873559 0.018843248 0.049135577 0.08672671 0.0913665
0.20117392 0.035171907 0.08916107 0.07135524 0.13239647 0.19904397 -0.08504263 0.061776143
0.17462724 0.11956465 0.013868439 0.12092904 0.18767127 -0.19313097 0.11644964 0.14785661
0.19948499 0.257954 0.0943393 0.19075917 0.2025431 -0.0056864936 -0.0138904415 0.051080223
-0.113727935 -0.0856145 0.038850334 -0.14777286 0.1516904 -0.19354379 0.049904123 0.25629884
-0.008448122 -0.0958443 0.068467036 -0.12278836 0.0193628 -0.0054906807 -0.008925722 0.1390279
0.017424382 0.0076168757 -0.0204568 -0.111159116 0.013936198 0.041463435 0.04612107 0.027991116
-0.032684527 0.07754102 -0.067038685 -0.06969852 -0.15884492 -0.08581282 0.07567112 -0.12907627
0.014542493 -0.006264335 -0.067444436 -0.04467276 -0.01782289 -0.03582531 0.056118455 -0.15650776
-0.08231558 -0.038226064 -0.0049572987 -0.036238115 -0.0013356925 -0.05510926 -0.12529868 -0.015840145
-0.057107523 -0.00088226737 -0.13149649 0.012606717 -0.0047854586 -0.10276708 -0.09650805 -0.025976831
0.030811494 0.070002995 0.01215692 -0.10720038 0.12573679 -0.05126382 0.03914455 0.078215376
-0.057197094 -0.0794797 -0.07955028 -0.037888657 -0.14585601 -0.06490209 0.17430262 0.010968064
-0.02336288 -0.10567355 -0.019541359 -0.028219705 -0.009435525 -0.045719095 0.08452628 -0.020600345
-0.07767418 -0.011739703 -0.0060276776 0.028766626 0.08840273 -0.022992188 -0.11362595 -0.029264214
-0.150546 0.0361352 -0.07552945 0.15884057 -0.055634167 0.14286329 -0.09133073 -0.096340045
0.017981598 0.03471223 0.029913826 0.13293746 -0.14563885 0.113054976 -0.07902481 -0.038851026
-0.13496788 0.10838826 -0.07003373 0.005135018 0.12048616 -0.009343809 0.055699795 -0.083957896
-0.026637223 0.13166489 -0.09253937 -0.0750009 -0.13874786 -0.08790541 -0.004337939 -0.07059929
-0.113153726 -0.062389772 0.021994501 -0.08040956 0.024903014 0.15054978 0.116546 -0.08382236
0.0143784955 0.013427247 -0.04793199 -0.077684134 -0.066465765 0.16811456 -0.052549925 0.018557182

degree_decoder.mlps.0.bias f4 [64]
00000000: 1b0d 6d3d 5c1c 7b3d c8ac 3fbe 01df 473e
00000010: f57b b7bd 17de 363e cef5 f83d d22d 433e
00000020: f48c 863d e962 ab3d 27de 543e 81d2 05be
00000030: fcfd 203e 7f43 46be a2ac 20be 9aa8 113e
00000040: e510 a43d 14ae 133d f558 283e 4dea 4f3c
00000050: 4911 3d3e 1e64 2ebe 969e 3e3e 13b9 283e
00000060: 4a5d 6e3b 5c7c 04bd f757 553e 3109 95bc
00000070: edd4 47be 9ab5 f5bd 9884 193e e03a 1f3e
00000080: d3de cc3d 46bf 6f3d 8a7e 2c3e 9734 763d
00000090: a786 a73d 893c 13be d2e1 dfbd 140f 043e
000000a0: eae4 d63d 8fe8 8abc f5bb 653e 072a c83d
000000b0: f17f 143e 085a b73d 074f 09be bed4 be3d
000000c0: 2313 063e 98af 97bc 664b 903d d082 6e3d
000000d0: 7ea6 1bbc 4674 043d 7b75 473e d85e b53d
000000e0: e213 563e fc57 1abc 0044 3d3d 6837 483d
000000f0: ea6b 5e3e 7414 643d 4bc6 753d 9d79 8d3d
0.057873826 0.061306342 -0.18718255 0.19518663 -0.0895919 0.17858158 0.121562585 0.19060448
0.065698534 0.08368475 0.2078787 -0.13068582 0.15721887 -0.19361685 -0.15690854 0.14224473
0.08011035 0.036054686 0.16440184 0.012690139 0.18463625 -0.17030379 0.18615183 0.1647685
0.0036371523 -0.03234516 0.20834337 -0.01819286 -0.19514818 -0.119975284 0.14991987 0.15549803
0.10003438 0.058532022 0.16845146 0.060108747 0.0817998 -0.14378561 -0.10931744 0.12896377
0.10492881 -0.016956596 0.22434981 0.09773641 0.14501931 0.08952719 -0.13409053 0.09317921
0.13093238 -0.018516347 0.07045631 0.05823022 -0.009500144 0.03233745 0.19478409 0.08855981
0.20906022 -0.009420391 0.046207428 0.048880965 0.21720853 0.055683568 0.06000356 0.069079615

degree_decoder.mlps.1.weight f4 [1, 64]
00000000: 32cd 0a3e 5c91 d33d 9c85 293d 2d93 593e
00000010: a5e9 ef3d 43ef 1c3e 335c 513e 7038 8a3e
00000020: 791b 0a3e 0838 e63d 42a6 423e e5d6 ec3d
00000030: e980 783e 11bc 5b3d 9aba f73d 531c 563e
00000040: 20eb 3f3e e9a8 223e 47c4 873e c295 0e3e
00000050: aa45 1f3e 35d2 c83d f403 823e 61e1 1a3e
00000060: 319c 0f3e 698e 393e 4b77 2b3e 143c a33d
00000070: feed 41bd 4982 b43d b31c 193e 6081 1f3e
00000080: 3f17 883e f88e 223e 4039 793e f65a 763e
00000090: 8440 153e c5fe cc3d 90ed f03d 31f6 553e
000000a0: a8ee 773e 32b9 8a3d 1967 823e 6f86 733e
000000b0: 2e78 273e 0dd4 0b3e 0053 323c 38c1 673e
000000c0: 2b91 3f3e 4566 a03d c075 073e 320c 4d3e
000000d0: 2e63 fd3d 3cf7 123e 260d 833e ae23 7e3e
000000e0: 51c1 383e ba9d 173e 0f40 763d c0ee 7f3e
000000f0: f989 2e3e 4dd3 d83d 9bd6 323e 09eb 3a3e
0.13554838 0.103304595 0.041387185 0.2124755 0.11714486 0.15325646 0.20445327 0.26996183
0.13487042 0.11241156 0.19008735 0.115644254 0.24267925 0.05364615 0.12096138 0.20909242
0.18742037 0.15884747 0.26516935 0.13924316 0.15553918 0.09805719 0.2539364 0.15125038
0.14024426 0.18120731 0.16744725 0.07970443 -0.047346108 0.088139124 0.14952354 0.15576696
0.26580235 0.15874851 0.24338245 0.24058136 0.14575392 0.10009531 0.117640615 0.20894696
0.24212134 0.067736045 0.25469282 0.23781751 0.16354439 0.1365511 0.010884047 0.22632301
0.18707721 0.07832006 0.13228512 0.20024183 0.12372433 0.14352125 0.2559597 0.24818298
0.18042494 0.14806262 0.060119685 0.2499342 0.1704482 0.105871774 0.17464678 0.18253721
